quantized_model.pth (torch, 101307 bytes, 56 tensors)

encoder.0.weight f4 [16, 1, 4, 4]
-0.3779745 -0.17885679 -0.21574591 -0.2158035 -0.22103444 0.029549437 -0.046871614 -0.04690015
-0.3413956 -0.113421366 -0.46105716 -0.29978502 -0.07118424 0.13880742 -0.04868979 0.3323214
0.55951554 0.030910231 0.39671743 0.42706162 0.02290717 -0.8654871 -0.53882724 -0.2138746
0.116612226 -0.35226178 -0.54706866 -0.10161253 0.1845713 -0.027344989 0.04033246 0.29177225
-0.4594863 -0.2271635 0.14703932 0.15719052 -0.66481304 -0.029267946 0.5325854 0.30022264
-0.51552165 0.14611094 0.76050454 0.0065194494 -0.058592156 0.3652076 0.4766137 0.08142041
-0.031144949 0.41663933 0.33302107 0.16948298 0.034007024 0.93028736 0.6943405 0.21968707
-0.023146266 0.70448196 0.24152936 0.15267427 -0.14887811 0.10226346 -0.12534627 -0.09741268
0.5749889 0.40813974 0.1904935 -0.03514246 0.5427189 0.77312213 0.3473994 0.058918405
-0.12152328 0.23529598 0.33456695 -0.023040183 -0.03922209 -0.117110565 0.36532596 0.30602506
0.4707165 -0.19934767 -0.08205199 -0.22674537 -0.06296065 -0.5788136 -0.0009345925 -0.14305434
0.112187296 -0.6099656 -0.046043664 -0.11709768 0.3078292 -0.3372256 -0.16520926 -0.28664333
-0.017308233 -0.03055113 0.29009885 0.5327227 -0.054091543 -0.30112594 0.1996758 0.16185825
0.491017 0.31538606 0.89567935 0.46390927 0.38658825 0.21963836 0.22379974 -0.087261565
0.0067583444 -0.080527365 -0.17953345 -0.30954665 -0.1065957 -0.34604385 -0.27361277 0.05527194
-0.21393313 -0.48655626 0.011920427 0.51052797 -0.41048673 -0.33531752 0.5240996 0.5469806
0.18592952 -0.12326125 -0.19143985 0.08394851 -0.25651184 -0.89314556 -0.6168863 -0.15790258
0.31662247 -0.0129661 0.19488744 0.4508654 0.30465198 0.43135735 0.47692153 0.039648883
-0.14476474 -0.11684164 -0.012711269 0.21732032 -0.3327989 -0.0489536 -0.17799263 -0.1909743
-0.21707398 0.028980574 -0.0021948642 -0.22453801 -0.29427448 -0.23216005 -0.13088216 -0.30177155
-0.17819925 -0.2400305 -0.18573073 -0.27770764 0.06705452 -0.2699199 -0.008175098 -0.09173822
0.5983856 -0.16337104 -0.27226016 -0.15918258 0.3265505 -0.14502285 -0.09159454 0.042843122
0.17712419 0.4160942 -0.27007422 0.11907081 0.41549534 0.7387072 -0.52771103 -0.34313726
0.119017825 0.36984035 -0.86102206 -0.52295405 -0.14566906 -0.011503882 -0.34061268 -0.30165416
-0.094169736 0.13903832 -0.012691104 -0.3084543 0.12840855 0.43911088 0.69724643 0.0786655
-0.31777966 -0.42396715 0.62843484 0.4770696 -0.320796 -0.7622526 -0.36482048 0.06712297
0.07701859 -0.30957273 -0.60810935 -0.5331662 0.38491076 0.3586243 -0.13975722 -0.30281803
0.28229553 0.897675 0.5492641 0.17270412 -0.17383549 0.15206568 -0.028073253 0.1739161
0.34286195 0.33345422 0.3929095 -0.074158765 0.5993661 0.0813507 0.07819085 -0.04531365
-0.27129737 -0.9276065 -0.6190868 -0.26908728 -0.16744788 -0.31265318 -0.1625931 0.20061365
0.024137275 0.2618277 0.10715448 -0.05403292 -0.5111443 0.2309905 0.24470651 -0.08846871
-0.56705123 0.44796383 0.1923226 -0.09013438 -0.38641816 0.37081936 0.16820629 -0.3983727
00000000: e085 c1be 3c26 37be 7fec 5cbe 98fb 5cbe
00000010: da56 62be a911 f23c 73fc 3fbd 5f1a 40bd
00000020: 67cb aebe 7649 e8bd af0f ecbe 6c7d 99be
00000030: 0bc9 91bd 8823 0e3e f26e 47bd 0826 aa3e
00000040: 693c 0f3f 7437 fd3c 8c1e cb3e d2a7 da3e
00000050: d1a7 bb3c 9090 5dbf 95f0 09bf f101 5bbe
00000060: 64d2 ee3d a85b b4be b10c 0cbf 3b1a d0bd
00000070: 4200 3d3e 9902 e0bc a633 253d 2c63 953e
00000080: ca41 ebbe 8c9d 68be 7a91 163e 8df6 203e
00000090: 3031 2abf 55c3 efbc 8457 083f c8b6 993e
000000a0: 3af9 03bf 1b9e 153e 6db0 423f 1ba1 d53b
000000b0: 54fe 6fbd 7efc ba3e b606 f43e bebf a63d
000000c0: b123 ffbc c051 d53e bd81 aa3e f28c 2d3e
000000d0: f34a 0b3d 5027 6e3f 4dc0 313f a6f5 603e
000000e0: 3d9d bdbc ee58 343f 7953 773e a556 1c3e
000000f0: 8173 18be 816f d13d c65a 00be 4d80 c7bd
00000100: 7932 133f b1f7 d03e ba10 433e 8af1 0fbd
00000110: a0ef 0a3f 55eb 453f 56de b13e 6d54 713d
00000120: 33e1 f8bd 6ef1 703e 5c4c ab3e c4be bcbc
00000130: 58a7 20bd aad7 efbd 010c bb3e 51af 9c3e
00000140: c101 f13e cc21 4cbe e00a a8bd f02f 68be
00000150: 83f1 80bd 212d 14bf 71ff 74ba d67c 12be
00000160: 74c2 e53d b526 1cbf 4898 3cbd e9d0 efbd
00000170: ca9b 9d3e d5a8 acbe 9e2c 29be eac2 92be
00000180: ffc9 8dbc 5d46 fabc d687 943e 8460 083f
00000190: 188f 5dbd 2e2d 9abe d077 4c3e 2bbe 253e
000001a0: 9566 fb3e 487a a13e 3e4b 653f 8485 ed3e
000001b0: e5ee c53e e1e8 603e c22b 653e 31b6 b2bd
000001c0: 1a75 dd3b 88eb a4bd 9ed7 37be e67c 9ebe
000001d0: d94e dabd a92c b1be f916 8cbe d464 623d
000001e0: 4911 5bbe e71d f9be e54d 433c f6b1 023f
000001f0: 512b d2be bdae abbe 642b 063f ec06 0c3f
00000200: 4f64 3e3e 6570 fcbd cf08 44be 32ed ab3d
00000210: 8555 83be 30a5 64bf 43ec 1dbf 37b1 21be
00000220: 571c a23e c46f 54bc 9390 473e d4d7 e63e
00000230: 58fb 9b3e dfda dc3e 0f2f f43e de66 223d
00000240: 353d 14be ab4a efbd ed42 50bc 3889 5e3e
00000250: 9e64 aabe 9283 48bd b343 36be c48e 43be
00000260: a448 5ebe ab68 ed3c b6d7 0fbb 4bed 65be
00000270: 25ab 96be 5dbb 6dbe f905 06be cd81 9abe
00000280: dd79 36be 8eca 75be 3230 3ebe b22f 8ebe
00000290: e153 893d f132 8abe d9f0 05bc 3fe1 bbbd
000002a0: cc2f 193f bd4a 27be af65 8bbe c200 23be
000002b0: a131 a73e df80 14be eb95 bbbd 457c 2f3d
000002c0: 0b60 353e 4d0a d53e 2b47 8abe 66db f33d
000002d0: cebb d43e ea1b 3d3f 1218 07bf b0af afbe
000002e0: 9ebf f33d b75b bd3e f16b 5cbf 51e0 05bf
000002f0: 452a 15be c77a 3cbc c964 aebe 6a72 9abe
00000300: 10dc c0bd 1060 0e3e 59ee 4fbc b9ed 9dbe
00000310: 887d 033e 24d3 e03e be7e 323f 611b a13d
00000320: 04b4 a2be 3912 d9be 1be1 203f 7742 f43e
00000330: 603f a4be fd22 43bf c0c9 babe c577 893d
00000340: ecbb 9d3d 5180 9ebe 0ead 1bbf 957d 08bf
00000350: 0613 c53e 9b9d b73e 841c 0fbe f70a 9bbe
00000360: 0a89 903e 07ce 653f 929c 0c3f 59d9 303e
00000370: ee01 32be 1bb7 1b3e e1f9 e5bc 1017 323e
00000380: 9a8b af3e 83ba aa3e 6f2b c93e 8de0 97bd
00000390: 0f70 193f 329b a63d 8622 a03d ce9a 39bd
000003a0: 7de7 8abe 9f77 6dbf 797c 1ebf cfc5 89be
000003b0: 7577 2bbe 1414 a0be ce7e 26be aa6d 4d3e
000003c0: 89bb c53c 480e 863e cf73 db3d a051 5dbd
000003d0: 5ada 02bf c688 6c3e 5894 7a3e 152f b5bd
000003e0: 452a 11bf 845b e53e 37f0 443e 6098 b8bd
000003f0: 9ad8 c5be 09dc bd3e 453e 2c3e 82f7 cbbe

encoder.0.bias f4 [16]
2.555307e-07 1.03570066e-07 3.0575595e-08 -2.268759e-07 5.5536855e-08 -3.511205e-08 -2.3837022e-07 -1.0777619e-07
1.9313872e-07 2.8123776e-07 -1.6874132e-07 -2.4996243e-07 -1.6758328e-07 -6.849208e-07 -2.063856e-07 -2.1707456e-07
00000000: df2f 8934 3f6a de33 3952 0333 2c9b 73b4
00000010: 6b87 6e33 1bce 16b3 b5f2 7fb4 9672 e7b3
00000020: 9161 4f34 06fd 9634 432f 35b4 9332 86b4
00000030: f1f0 33b4 66db 37b5 d79a 5db4 0015 69b4

encoder.1.weight f4 [16]
1.2785177 0.7339277 0.58502775 0.7603004 0.99748147 1.3216012 0.7827865 0.8985635
0.66833204 1.6276563 0.991667 0.5008081 0.6208963 0.667883 0.68837696 0.64970326
00000000: 78a6 a33f b0e2 3b3f 61c4 153f 0ca3 423f
00000010: f25a 7f3f 3a2a a93f b264 483f 4208 663f
00000020: cf17 2b3f 0b57 d03f e3dd 7d3f f634 003f
00000030: 0ff3 1e3f 61fa 2a3f 7939 303f f452 263f

encoder.1.bias f4 [16]
0.03526651 0.5064524 0.10556972 -1.0785452 -0.33096623 0.24068838 -0.5801801 -0.23982708
0.060193192 -0.06987857 -0.23730993 0.49644002 -0.07535124 0.36559784 0.4725295 0.22823669
00000000: 9e73 103d dda6 013f f034 d83d c50d 8abf
00000010: 6874 a9be 0477 763e af86 14bf 3b95 75be
00000020: 238d 763d 7f1c 8fbd 6001 73be 632d fe3e
00000030: c051 9abd a42f bb3e 63ef f13e e1b6 693e

encoder.1.running_mean f4 [16]
1.4604529 0.63476914 -0.8056029 -2.5897982 -2.6237955 1.4232595 -2.5035846 0.7928448
-0.020902732 1.4469119 0.7458224 0.65506226 -0.17259458 -0.791742 0.6633919 -0.09915164
00000000: 1ff0 ba3f 3b80 223f fe3b 4ebf 41bf 25c0
00000010: 44ec 27c0 5e2d b63f bb3a 20c0 e0f7 4a3f
00000020: 353c abbc 6934 b93f 38ee 3e3f 29b2 273f
00000030: a2bc 30be 9baf 4abf 0dd4 293f 0410 cbbd

encoder.1.running_var f4 [16]
1.0826315 0.9286593 1.8085245 3.680004 3.3737686 1.2361493 2.9558623 1.139031
0.84554356 0.9724457 0.6471607 1.6020453 0.96532345 1.4691728 1.1978977 0.44169983
00000000: ab93 8a3f 9ebc 6d3f bb7d e73f 2f85 6b40
00000010: d3eb 5740 243a 9e3f d92c 3d40 c5cb 913f
00000020: 8b75 583f 34f2 783f 53ac 253f d20f cd3f
00000030: 701f 773f db0d bc3f b654 993f 7b26 e23e

encoder.3.weight f4 [16, 16, 4, 4]
-0.11160606 -0.05736339 -0.10253424 -0.047888752 -0.14521834 -0.02536451 0.1772078 0.05142474
0.058359824 -0.14287236 -0.23314877 -0.061334155 -0.035271004 -0.008352184 0.08238386 -0.010700068
0.16839069 0.20941414 0.08361768 0.035124507 0.10328337 -0.260465 0.0018134487 0.09103892
-0.030487712 -0.34283924 -0.072789036 0.12554477 0.29318967 -0.0940624 0.01417495 0.21576022
-0.1399209 -0.15600458 -0.07128697 0.072390586 -0.035686813 0.28041378 -0.067882165 -0.062223673
-0.2205536 0.14388597 0.25529438 0.08428119 0.09351162 0.067455016 0.061182227 0.019168686
-0.11535144 -0.17220294 -0.02977315 -0.058783524 -0.13544932 -0.04124375 -0.19653037 -0.018181605
-0.0729886 0.16880383 -0.038743112 0.06864575 -0.026630329 -0.14862233 0.07691254 -0.15228114
-0.06927715 -0.12199697 0.031831298 -0.016449792 -0.15262169 0.08272589 0.017719483 0.109640874
-0.025673017 0.12315419 0.2152512 -0.037864067 0.016012361 -0.037083358 0.054991324 -0.27421817
-0.023648312 -0.06483272 -0.18512884 -0.06580037 -0.08909255 0.06102721 -0.11409906 0.08035092
-0.16216463 -0.115869276 0.039495744 -0.026115678 0.12300298 0.07264075 -0.074543305 0.041223858
-0.1065162 -0.22988747 -0.14235654 -0.1463848 -0.047252923 0.12150151 -0.0026743603 -0.11023662
0.03296718 0.15157217 0.31281883 -0.036436018 -0.11789393 -0.028748924 -0.16205615 -0.039196637
-0.1553892 -0.12445812 -0.13783619 -0.14783041 -0.014942191 0.030038076 0.19903167 -0.12158745
-0.057014618 0.14063412 -0.0073603564 -0.12340309 0.050517116 0.053864393 -0.05707863 0.24966612
-0.053997688 -0.041858505 0.20034306 0.07390935 0.04623082 -0.1340128 -0.072975785 -0.0004804137
-0.05201146 0.075324684 0.050495233 0.16697925 0.24776334 0.015802737 0.06551095 0.04604144
-0.102405936 0.037277706 0.042244148 -0.13718323 0.1593224 -0.078797154 0.12849982 0.07590972
0.14104323 -0.038159512 -0.13559906 -0.14055951 -0.073921025 0.076941416 0.085667714 -0.042239044
-0.08272873 0.0703205 -0.052622218 -0.080297954 -0.12331812 -0.0031542073 0.004323427 0.05139116
-0.06480227 -0.0045231613 -0.27855876 0.007541154 0.13041282 -0.08149017 0.09390498 -0.011215503
0.19701312 -0.04999246 -0.038353667 0.07322418 -0.18334284 -0.0996633 0.073488906 -0.08949579
-0.22422777 -0.10887513 0.059248734 0.0743797 0.11979794 0.14905867 0.2011135 -0.073667094
0.041976076 0.16843218 0.11955852 0.17077145 0.061070386 0.02134117 0.24345823 0.008653633
0.091370545 0.2640728 0.07262788 0.10102056 -0.013490458 -0.042951196 -0.016338935 -0.2346064
-0.08191931 -0.024962477 -0.08124983 -0.097371444 -0.05017979 0.2892377 0.067351505 -0.050479293
-0.12552312 0.22392005 0.66721797 0.09642283 0.058934774 0.07517908 0.03565281 -0.09981908
0.21430668 -0.0433761 0.05779694 0.2769199 0.037014596 -0.15206417 -0.22136372 0.02635516
0.07182638 -0.06673465 0.18464664 -0.010617554 -0.09801556 0.09694027 0.059519768 -0.33146974
0.06672015 -0.005155832 0.07147427 0.050625563 0.03216611 -0.013206853 0.14552686 0.30988115
0.12110366 -0.028692827 -0.110780716 0.20782052 -0.02938087 -0.03469543 0.06314123 0.04238658
00000000: b891 e4bd e0f5 6abd 79fd d1bd ff26 44bd
00000010: 1eb4 14be 3cc9 cfbc f675 353e c0a2 523d
00000020: b60a 6f3d 224d 12be 8dbe 6ebe 8639 7bbd
00000030: 5478 10bd 99d7 08bc dfb8 a83d 574f 2fbc
00000040: 9c6e 2c3e a970 563e bf3f ab3d b7de 0f3d
00000050: 3b86 d33d ab5b 85be 3eb1 ed3a 9d72 ba3d
00000060: 5ec1 f9bc a088 afbe 6b12 95bd cf8e 003e
00000070: f51c 963e caa3 c0bd 0d3e 683c 3ff0 5c3e
00000080: 6d47 0fbe aabf 1fbe e7fe 91bd 8441 943d
00000090: 562c 12bd 6592 8f3e ce05 8bbd 40de 7ebd
000000a0: ced8 61be d856 133e f2b5 823e 9e9b ac3d
000000b0: 0583 bf3d db25 8a3d 379a 7a3d a607 9d3c
000000c0: 603d ecbd f855 30be d2e6 f3bc fec6 70bd
000000d0: 3ab3 0abe 35ef 28bd 423f 49be 97f1 94bc
000000e0: 0c7b 95bd e9da 2c3e 19b1 1ebd 2596 8c3d
000000f0: d927 dabc 7430 18be 5284 9d3d 96ef 1bbe
00000100: 2ee1 8dbd 8cd9 f9bd 8961 023d b7c1 86bc
00000110: dc48 1cbe 316c a93d 7328 913c 658b e03d
00000120: 3850 d2bc 4438 fc3d d06a 5c3e 5a17 1bbd
00000130: 5b2c 833c b8e4 17bd 953e 613d 5366 8cbe
00000140: 1bba c1bc 04c7 84bd 6a92 3dbe 58c2 86bd
00000150: 2876 b6bd abf7 793d c5ac e9bd 068f a43d
00000160: 7c0e 26be df4c edbd 4ac6 213d 8cf0 d5bc
00000170: fde8 fb3d acc4 943d 29aa 98bd 59da 283d
00000180: 2a25 dabd 9f67 6bbe eac5 11be e6e5 15be
00000190: 488c 41bd c9d5 f83d 5244 2fbb bdc3 e1bd
000001a0: 9808 073d bc35 1b3e ca29 a03e ef3d 15bd
000001b0: 5f72 f1bd dd82 ebbc 0cf2 25be a78c 20bd
000001c0: 591e 1fbe e6e3 febd ee24 0dbe db60 17be
000001d0: 17d0 74bc 6912 f63c f5ce 4b3e d702 f9bd
000001e0: 2988 69bd 6402 103e 252f f1bb c2ba fcbd
000001f0: 09eb 4e3d e9a0 5c3d 48cb 69bd 7aa8 7f3e
00000200: ae2c 5dbd d373 2bbd bb26 4d3e c95d 973d
00000210: 875c 3d3d a73a 09be 5474 95bd 09e0 fbb9
00000220: f809 55bd d443 9a3d 17d4 4e3d 9cfc 2a3e
00000230: acb5 7d3e be74 813c 9b2a 863d f395 3c3d
00000240: 34ba d1bd 82b0 183d 3308 2d3d c379 0cbe
00000250: 6925 233e 6760 a1bd 7595 033e 8e76 9b3d
00000260: a36d 103e 264d 1cbd 7bda 0abe d5ee 0fbe
00000270: e863 97bd 7693 9d3d 8e72 af3d d902 2dbd
00000280: ae6d a9bd 3204 903d 658a 57bd 4173 a4bd
00000290: 368e fcbd d1b6 4ebb 89ab 8d3b 897f 523d
000002a0: 0db7 84bd 0737 94bb 419f 8ebe c91b f73b
000002b0: f08a 053e 51e4 a6bd 4151 c03d 3bc1 37bc
000002c0: cfbd 493e e5c4 4cbd bc18 1dbd 8ff6 953d
000002d0: 3abe 3bbe 461c ccbd 5a81 963d 9249 b7bd
000002e0: f79b 65be edf9 debd cdae 723d 6254 983d
000002f0: 9f58 f53d d6a2 183e b3f0 4d3e c6de 96bd
00000300: 1bef 2b3d 7c79 2c3e 19db f43d b6de 2e3e
00000310: f124 7a3d add3 ae3c 1d4d 793e f8c7 0d3c
00000320: 7b20 bb3d 8d34 873e edbd 943d dee3 ce3d
00000330: 1507 5dbc 98ed 2fbd 3bd9 85bc a93c 70be
00000340: 50c5 a7bd 1c7e ccbc 5066 a6bd ae6a c7bd
00000350: 5389 4dbd f716 943e 96ef 893d 60c3 4ebd
00000360: 2289 00be 4c4b 653e ccce 2a3f 5579 c53d
00000370: 9765 713d 7df7 993d ae08 123d f26d ccbd
00000380: 3673 5b3e 23ab 31bd 7cbc 6c3d 72c8 8d3e
00000390: 9e9c 173d b6b6 1bbe 2cad 62be c7e6 d73c
000003a0: b619 933d 2dac 88bd 0214 3d3e 40f5 2dbc
000003b0: 62bc c8bd 9f88 c63d 00cb 733d 67b6 a9be
000003c0: 93a4 883d 41f2 a8bb 1a61 923d c05c 4f3d
000003d0: 9cc0 033d 8e61 58bc fe04 153e bea8 9e3e
000003e0: 3205 f83d 380d ebbc 00e1 e2bd e7ce 543e
000003f0: 26b0 f0bc cc1c 0ebd 3050 813d 8d9d 2d3d

encoder.3.bias f4 [16]
6.0975696e-09 3.530323e-08 1.2101164e-07 -6.854445e-09 4.3915787e-08 -1.1288794e-08 -7.0221375e-08 -5.068654e-08
4.2190123e-08 -2.0614772e-08 5.8509922e-08 5.4269638e-08 -3.0129268e-08 -7.1691617e-09 -9.691063e-08 -2.9675865e-08
00000000: ca82 d131 50a0 1733 6def 0134 5684 ebb1
00000010: eb9d 3c33 a4f0 41b2 9ccc 96b3 71b2 59b3
00000020: 8834 3533 5d14 b1b2 574c 7b33 1916 6933
00000030: 7b67 01b3 9d54 f6b1 2f1d d0b3 ebe9 feb2

encoder.4.weight f4 [16]
0.3245135 0.8137552 0.45345813 0.2715705 1.5244244 0.55409116 1.0581219 0.7743006
0.36117437 0.78924584 0.5188186 0.39878777 0.30666354 0.5920872 0.65596414 0.51800513
00000000: a226 a63e 4352 503f aa2b e83e 4a0b 8b3e
00000010: 5720 c33f ebd8 0d3f 8a70 873f 9038 463f
00000020: d9eb b83e 040c 4a3f 4cd1 043f e92d cc3e
00000030: 0103 9d3e 0793 173f 44ed 273f fc9b 043f

encoder.4.bias f4 [16]
0.8167187 0.1502322 0.4969734 0.8579047 0.49222082 0.67478454 0.048953705 0.16895439
1.3969599 -0.42186925 0.8531331 1.0181066 0.76180464 0.6421326 0.020610865 -0.38121662
00000000: 7a14 513f 78d6 193e 4c73 fe3e a49f 5b3f
00000010: 5e04 fc3e aebe 2c3f ae83 483d 6102 2d3e
00000020: 95cf b23f 3fff d7be ee66 5a3f 5151 823f
00000030: a105 433f cd62 243f 1ed8 a83c d32e c3be

encoder.4.running_mean f4 [16]
0.30520234 -0.72007716 -0.9980379 0.2983848 -1.0630544 0.07878142 1.3261615 -4.433158
-0.24164778 -0.048893772 1.503354 0.3014876 -1.6467141 -1.3649879 0.12048445 -1.9124222
00000000: 7b43 9c3e fa56 38bf 697f 7fbf e4c5 983e
00000010: 2b12 88bf 2758 a13d a9bf a93f 6edc 8dc0
00000020: 8472 77be d644 48bd e76d c03f 955c 9a3e
00000030: 87c7 d2bf ecb7 aebf 8dc0 f63d 40ca f4bf

encoder.4.running_var f4 [16]
1.7918292 5.9523067 3.115564 2.0261226 9.152881 4.9060984 9.057977 10.746225
2.646405 4.240994 3.0976186 1.458602 3.2942612 7.8263416 10.747398 3.0447404
00000000: a95a e53f 4c79 be40 6765 4740 feab 0140
00000010: 3372 1241 c2fe 9c40 79ed 1041 8af0 2b41
00000020: b35e 2940 39b6 8740 623f 4640 78b3 ba3f
00000030: 2dd5 5240 6471 fa40 58f5 2b41 07dd 4240

encoder.6.convs.1.weight f4 [16, 16, 3, 3]
0.10464276 -0.08244962 -0.0336189 -0.13749054 0.36595052 0.050332077 0.060797986 0.13998598
0.12031978 -0.16686712 -0.02704151 0.06956568 0.15795517 0.66158575 -0.0047984514 0.12627949
-0.117529884 -0.0594731 0.018285502 0.1874154 0.2093777 0.017357467 0.012252938 0.35210332
-0.014558532 0.28485018 -0.023546174 -0.03435034 0.0033642757 -0.107957296 0.15457316 -0.48679706
-0.1790736 -0.016768182 -0.0053388774 -0.21902153 -0.25124606 -0.19349633 -0.2373455 0.17681755
-0.50857866 -0.30524945 -0.046590164 0.21757962 0.020655392 -0.24949035 0.033888716 0.35822195
0.030532576 -0.077669874 -0.15379807 0.06208257 0.061140526 -0.0031095971 0.1220535 0.15523696
0.2907905 0.15116961 0.295455 0.0747343 -0.03476298 -0.035204474 0.02836219 -0.21309087
-0.393192 -0.13523126 -0.03318003 0.2899979 -0.25534636 -0.13306145 -0.078556865 0.0463568
0.16437876 0.6006146 0.085229546 0.111713834 -0.14481977 0.013321501 0.020821456 -0.016585095
0.15919583 -0.0600572 -0.072045505 0.059277225 0.06803924 -0.11287837 0.09876277 -0.087082215
-0.11112045 0.03370485 -0.26738098 -0.14041685 -0.07918761 0.09640452 -0.14458129 0.25520048
-0.040393095 0.20708269 0.05080737 0.012110999 0.026435377 0.057175767 -0.16144812 0.35070086
0.010214882 0.008934919 0.03680856 -0.06921759 0.04370482 0.28696275 0.06658639 -0.2870489
0.33429146 0.0014910104 -0.009939791 -0.012768212 0.069015495 -0.068968385 0.054321583 -0.27688
0.028532539 0.15327595 0.08055491 0.16906047 -0.0967209 -0.04327008 -0.20099466 -0.34876183
-0.15476511 0.23820809 0.024637446 -0.34237042 0.0032152096 -0.14337415 -0.08709132 -0.047638524
-0.1929827 0.008262238 0.1757111 0.84075916 0.1617233 0.003280777 0.121801876 0.0406707
-0.20790192 0.07104871 0.079862446 -0.22098596 0.09722188 -0.0037192213 -0.07367362 -0.07443591
-0.07368414 -0.08797647 -0.024821354 0.00062643195 -0.032308362 0.0020554657 0.0526911 -0.18416853
-0.111404106 -0.00946844 -0.1811137 -0.095442586 0.020536223 -0.321018 0.09387149 -0.25599858
-0.061078183 -0.19078992 -0.14925423 0.1524634 0.027470209 0.117011085 -0.06704338 -0.074838586
0.043770123 0.04612555 0.086005025 -0.020327685 0.07027952 0.035160404 0.03864392 0.17715544
0.14505453 0.25226548 0.045056883 0.13257979 0.12176264 -0.15637365 -0.13973328 0.033132493
-0.069996625 0.033798784 -0.12184484 -0.09029346 -0.013831949 -0.077869184 -0.3093193 -0.0507056
0.0031908196 -0.14725949 0.0070830365 0.049789976 -0.03937625 0.10340534 -0.067114346 0.10966669
0.09097532 0.035116874 -0.3022111 0.4050233 0.12506033 0.008931944 0.2234043 0.095109254
-0.10130217 0.09056632 0.019839572 0.04445305 0.34717828 0.10706639 -0.06307171 0.16499221
-0.008190693 0.03738726 -0.056608517 -0.077202424 -0.066748194 0.07293939 0.033649065 0.077469565
0.08609811 0.036840107 0.0043422133 0.01755762 -0.028739374 0.2528022 0.18847777 0.019916529
0.055956133 -0.12315413 0.046997674 0.037466515 -0.16990808 0.02233928 0.02159693 0.05815701
0.05042923 0.07732656 0.08511044 0.061712816 -0.29960963 -0.073172644 -0.047941178 -0.083130874
00000000: f14e d63d 59db a8bd f9b3 09bd 52ca 0cbe
00000010: de5d bb3e 0229 4e3d 4f07 793d 7c58 0f3e
00000020: 386a f63d 37df 2abe 2886 ddbc 7478 8e3d
00000030: 00bf 213e af5d 293f 543c 9dbb 694f 013e
00000040: 82b3 f0bd 119a 73bd 7acb 953c d3e9 3f3e
00000050: 1c67 563e 3f31 8e3c 8cc0 483c e346 b43e
00000060: e986 6ebc e2d7 913e e8e3 c0bc f1b2 0cbd
00000070: 2e7b 5c3b b718 ddbd 6d48 1e3e 773d f9be
00000080: 125f 37be 6d5d 89bc c0f1 aebb 2e47 60be
00000090: 53a3 80be e723 46be b30a 73be a90f 353e
000000a0: 3632 02bf a849 9cbe 54d5 3ebd 31cd 5e3e
000000b0: 7f35 a93c 667a 7fbe e5ce 0a3d de68 b73e
000000c0: 741f fa3c 6211 9fbd 3e7d 1dbe 4b4a 7e3d
000000d0: 7d6e 7a3d 62ca 4bbb 2ff7 f93d 70f6 1e3e
000000e0: 7ee2 943e 35cc 1a3e e145 973e 4c0e 993d
000000f0: a063 0ebd 9132 10bd d357 e83c 7e34 5abe
00000100: 7650 c9be 107a 0abe c8e7 07bd 9b7a 943e
00000110: c2bc 82be 4341 08be 6ce2 a0bd a1e0 3d3d
00000120: e852 283e e1c1 193f d48c ae3d 39ca e43d
00000130: a24b 14be 6d42 5a3c c291 aa3c 77dd 87bc
00000140: 3b04 233e 8afe 75bd 988c 93bd adcc 723d
00000150: 2858 8b3d c62c e7bd 2344 ca3d 2958 b2bd
00000160: 1e93 e3bd 190e 0a3d 29e6 88be 6fc9 0fbe
00000170: 1d2d a2bd bc6f c53d 1e0d 14be a3a9 823e
00000180: 3b73 25bd 7c0d 543e 641b 503d 366d 463c
00000190: 018f d83c 2331 6a3d a852 25be 108f b33e
000001a0: 525c 273c c463 123c 93c4 163d f4c1 8dbd
000001b0: d303 333d c8ec 923e 725e 883d 13f8 92be
000001c0: 4028 ab3e 026e c33a 81da 22bc c331 51bc
000001d0: ff57 8d3d 4c3f 8dbd 4f80 5e3d 37c3 8dbe
000001e0: 12bd e93c 5ff4 1c3e f9f9 a43d 301e 2d3e
000001f0: 9b15 c6bd f83b 31bd 8bd1 4dbe e990 b2be
00000200: bf7a 1ebe d2ec 733e 78d4 c93c 2d4b afbe
00000210: 44b6 523b acd0 12be ef5c b2bd 9d20 43bd
00000220: 429d 45be 575e 073c 9ced 333e fe3b 573f
00000230: cb9a 253e 4e02 573b 4373 f93d 5296 263d
00000240: 3ee4 54be fc81 913d ec8e a33d 254a 62be
00000250: 441c c73d 2ebe 73bb 32e2 96bd db71 98bd
00000260: b6e7 96bd 022d b4bd 2756 cbbc 2337 243a
00000270: c655 04bd feb4 063b 9fd2 573d ad96 3cbe
00000280: d627 e4bd 8421 1bbc df75 39be 6777 c3bd
00000290: 953b a83c 795c a4be b23f c03d 3f12 83be
000002a0: 1e2d 7abd 6f5e 43be 1ad6 18be 5e1f 1c3e
000002b0: 3409 e13c 82a3 ef3d 0a4e 89bd f944 99bd
000002c0: 4d48 333d 25ee 3c3d 6723 b03d 3f86 a6bc
000002d0: b5ee 8f3d 5b04 103d 1649 1e3d 3c68 353e
000002e0: 2d89 143e f128 813e 918d 383d ffc2 073e
000002f0: b15e f93d 6a20 20be 3e16 0fbe f0b5 073d
00000300: 645a 8fbd 9870 0a3d ca89 f9bd c7eb b8bd
00000310: 669f 62bc e179 9fbd 195f 9ebe adb0 4fbd
00000320: 121d 513b 31cb 16be d118 e83b 93f0 4b3d
00000330: fe48 21bd 2ec6 d33d 3f73 89bd ee98 e03d
00000340: 4551 ba3d b6d6 0f3d 6abb 9abe 375f cf3e
00000350: d10f 003e 4a57 123c 19c4 643e a4c8 c23d
00000360: 8377 cfbd d67a b93d 9986 a23c 6714 363d
00000370: 5ac1 b13e a045 db3d be2b 81bd b8f3 283e
00000380: 4232 06bc 6223 193d 55de 67bd 4e1c 9ebd
00000390: 47b3 88bd 3f61 953d 9ad3 093d 5da8 9e3d
000003a0: 3554 b03d a7e5 163d 2049 8e3b ffd4 8f3c
000003b0: d66e ebbc 4a6f 813e 5100 413e fd27 a33c
000003c0: 4232 653d 3c38 fcbd a280 403d 7d76 193d
000003d0: 62fc 2dbe de00 b73c 0cec b03c 0b36 6e3d
000003e0: e18e 4e3d 635d 9e3d 624e ae3d 94c6 7c3d
000003f0: 6f66 99be 8adb 95bd f85d 44bd 8540 aabd

encoder.6.convs.1.bias f4 [16]
-3.4693798e-08 -3.214295e-08 -4.1255377e-09 -2.7402503e-08 1.974184e-08 9.090152e-08 6.993028e-08 1.6708135e-08
-3.1853286e-08 3.906811e-08 5.9247873e-09 3.7130402e-08 -2.3114136e-08 4.147389e-08 -2.1897929e-08 -1.9301842e-08
00000000: 3c02 15b3 8c0d 0ab3 9dc0 8db1 be62 ebb2
00000010: c494 a932 a435 c333 942c 9633 9485 8f32
00000020: 0fcf 08b3 d7cb 2733 fb92 cb31 4f79 1f33
00000030: 868c c6b2 0621 3233 0e1a bcb2 33cd a5b2

encoder.6.convs.2.weight f4 [16]
0.7786971 0.5567622 0.6353888 1.1488776 0.6191504 0.6829163 1.1489081 0.94098777
0.60918415 1.3853317 0.90538764 0.79170173 0.5993597 0.56132555 0.76730376 0.6462696
00000000: b158 473f f887 0e3f d7a8 223f 6c0e 933f
00000010: a480 1e3f 9ad3 2e3f 6c0f 933f 93e4 703f
00000020: 7ef3 1b3f 8d52 b13f 7cc7 673f f7ac 4a3f
00000030: a36f 193f 08b3 0f3f 056e 443f ed71 253f

encoder.6.convs.2.bias f4 [16]
-0.5900419 0.22746927 0.34326732 -1.7433785 -0.13889106 -0.21101643 -1.8035765 -0.10668447
-0.31299698 -1.4649402 0.17830798 -0.4696133 -0.071378246 -0.15048584 -0.010215858 -0.119143434
00000000: fc0c 17bf b4ed 683e bcc0 af3e 0727 dfbf
00000010: 7539 0ebe b114 58be 98db e6bf 637d dabd
00000020: 2441 a0be 2983 bbbf 5e96 363e 2871 f0be
00000030: c22e 92bd f618 1abe 6a60 27bc 7901 f4bd

encoder.6.convs.2.running_mean f4 [16]
1.2252105 0.7772176 2.065523 -1.8788071 -1.4327745 1.8347186 -2.0268338 0.26503932
1.4615744 2.0336514 -1.1189293 -1.9479797 -1.1322166 0.20956315 0.50761163 -0.65208554
00000000: b3d3 9c3f bcf7 463f 8731 0440 c07c f0bf
00000010: 2865 b7bf 0fd8 ea3f a5b7 01c0 3cb3 873e
00000020: df14 bb3f 5827 0240 1339 8fbf 6657 f9bf
00000030: 79ec 90bf b997 563e d6f2 013f 14ef 26bf

encoder.6.convs.2.running_var f4 [16]
1.2398868 1.2045413 1.8628473 3.579211 0.98699826 1.3759955 2.4084196 2.2969363
1.1825747 2.2799618 2.9423726 1.219226 0.69330746 2.7736366 1.595527 1.0042696
00000000: 9cb4 9e3f 692e 9a3f c871 ee3f cb11 6540
00000010: ebab 7c3f 9f20 b03f 8c23 1a40 0101 1340
00000020: 9c5e 973f e5ea 1140 d54f 3c40 990f 9c3f
00000030: 997c 313f 4383 3140 3b3a cc3f e88b 803f

encoder.6.convs.4.weight f4 [16, 16, 1, 1]
0.03842444 -0.21180764 -0.09534249 0.53397363 0.23393771 -0.26463363 0.64117277 -0.16917694
-0.0896598 0.04338821 -0.17572574 0.0943557 -0.24894948 -0.08496654 0.02612532 -0.16661796
0.41281956 -0.1026645 -0.29380766 0.10550811 0.069628395 -0.10873562 0.087448314 -0.6657199
-0.020218732 -0.31527779 -0.002504443 0.72216505 -0.003418572 -0.16953555 -0.24125081 0.1384443
-0.064215876 -0.18210816 0.0055605085 0.028726587 0.094933376 -0.11927086 0.229263 0.03646413
-0.16050713 0.23327193 -0.5981351 0.10714751 0.16141333 0.0062736175 -0.31185365 -0.29692942
0.050392378 -0.012858482 0.059833717 0.30427927 -0.24764362 1.0142798 0.22441684 0.35630706
0.3438657 -0.14562814 0.12932934 -0.06878718 0.05844655 -0.58389425 0.21429761 -0.060603213
-0.44076556 -0.55120605 0.1535603 -0.12761404 0.29587957 0.5187135 -0.456987 -0.008992038
0.29979843 0.82463336 -0.3293339 0.7092936 -0.21448536 0.16871141 0.079224505 0.78110635
-0.09751611 0.02949203 -0.16429475 0.7587601 -0.14512107 0.13717225 0.13102975 -0.12221915
0.21202396 -0.72295815 -0.13764766 -0.019153183 -0.21422602 -0.44042712 -0.39158744 0.41064087
0.854274 -0.40183163 0.2805716 0.104744196 0.6952346 -0.45143083 0.12502976 -0.8776408
0.40360862 0.7925883 -0.29476357 -0.46229023 0.61824393 -0.31835833 -0.60444754 -0.26192957
0.56082773 0.2682837 -1.1534499 0.9787451 0.10738659 0.3130343 0.9891087 0.36557108
0.15331472 -0.3516567 -0.48265973 0.1079031 0.21584804 -0.30025008 0.054491516 -0.04820396
0.23886554 -0.08064733 -0.10422422 -0.18125628 -0.015787939 0.60834 0.73925155 0.19140661
0.15720843 0.4805875 -0.54582363 0.19941783 0.0004469197 0.18606 0.14833647 0.17141607
0.50146955 -0.012189372 0.0062737563 0.20622659 0.609987 -0.06609894 0.71186954 0.18260063
0.649091 0.322407 -0.3830798 0.076707855 -0.5318941 -0.1883521 0.17083986 -0.08838221
0.38962203 -0.38806984 0.46368867 -0.028771535 0.23857477 -0.26496378 -0.23682564 -0.1013274
-0.2500114 -0.081365645 0.12220317 -0.022069618 0.92814195 -0.35492095 0.33517504 -0.42609027
0.01434843 -0.0010562154 0.09896975 0.04617174 0.21458118 0.09285346 0.4221269 -0.3771999
-0.13910924 0.41090173 -0.082358144 -0.16516347 0.025261031 0.6054099 0.096262865 0.075935505
-0.116121784 0.32486573 -0.103185095 0.29489237 0.052728258 0.2613612 -0.12301251 -0.21018943
-0.032977365 -0.13245846 0.11694835 0.07040249 0.25726205 0.3433992 -0.567339 0.18631949
0.20857932 -0.06256043 -0.09321543 0.5123077 0.35771188 0.17196263 -0.53920275 -0.67718124
0.15049046 0.720782 -0.39967808 1.2051736 0.13957803 -0.4681061 0.6900614 -0.19838792
0.4443566 0.26630408 0.36307234 0.56640846 -0.058267668 0.121781185 0.7617793 0.28887475
0.5035859 -0.39983732 -0.014283139 0.058099043 -0.004865071 0.041737277 -0.15644687 -0.16972536
0.05568848 0.3604021 0.3385471 0.92759025 0.49424908 -0.16861285 -0.43570107 0.121305674
0.3048766 0.43265587 0.49588695 0.04999417 0.018576775 -0.6012434 0.28364524 -0.69419014
00000000: f262 1d3d 1ae4 58be ec42 c3bd 7fb2 083f
00000010: 5e8d 6f3e 0f7e 87be e623 243f b83c 2dbe
00000020: 8f9f b7bd d6b7 313d 73f1 33be 903d c13d
00000030: 9dec 7ebe f002 aebd c404 d63c e69d 2abe
00000040: 165d d33e c441 d2bd f56d 96be a314 d83d
00000050: 5599 8e3d c8b0 debd 1a18 b33d 9f6c 2abf
00000060: c1a1 a5bc 176c a1be 9521 24bb cfdf 383f
00000070: 1f0a 60bb ba9a 2dbe 740a 77be 58c4 0d3e
00000080: 9d83 83bd 907a 3abe ed34 b63b 0554 eb3c
00000090: 6e6c c23d 4844 f4bd ebc3 6a3e 695b 153d
000000a0: fb5b 24be d6de 6e3e 621f 19bf 2770 db3d
000000b0: 8949 253e eb92 cd3b 48ab 9fbe 2207 98be
000000c0: 3d68 4e3d 62ac 52bc 3314 753d 7eca 9b3e
000000d0: 4a96 7dbe ecd3 813f 87cd 653e e16d b63e
000000e0: 2a0f b03e 8b1f 15be e96e 043e 4be0 8cbd
000000f0: a665 6f3d 187a 15bf d570 5b3e 133b 78bd
00000100: 06ac e1be d71b 0dbf e93e 1d3e 41ad 02be
00000110: 877d 973e 68ca 043f 33fa e9be 5753 13bc
00000120: 2e7f 993e 2c1b 533f 749e a8be 4494 353f
00000130: 0da2 5bbe afc2 2c3e 7540 a23d 96f6 473f
00000140: 87b6 c7bd 4599 f13c e23c 28be 1a3e 423f
00000150: 9e9a 14be e276 0c3e aa2c 063e 094e fabd
00000160: cf1c 593e c913 39bf 82f3 0cbe 23e7 9cbc
00000170: 115e 5bbe aa7f e1be 267e c8be 853f d23e
00000180: b3b1 5a3f e0bc cdbe 15a7 8f3e 2084 d63d
00000190: e5fa 313f f121 e7be cd07 003e 11ad 60bf
000001a0: caa5 ce3e 11e7 4a3f 40eb 96be 4eb1 ecbe
000001b0: 3c45 1e3f ddff a2be 13bd 1abf a21b 86be
000001c0: 6892 0f3f 7b5c 893e 3fa4 93bf 0a8f 7a3f
000001d0: 80ed db3d 0846 a03e 3a36 7d3f 222c bb3e
000001e0: 89fe 1c3e 590c b4be 2d1f f7be 4dfc dc3d
000001f0: 4507 5d3e 61ba 99be 7f32 5f3d 8471 45bd
00000200: 2b99 743e 6d2a a5bd 8273 d5bd 3f9b 39be
00000210: b555 81bc 2cbc 1b3f 973f 3d3f 1800 443e
00000220: 3ffb 203e 910f f63e 19bb 0bbf 3034 4c3e
00000230: 8c50 ea39 8386 3e3e 84e5 173e b287 2f3e
00000240: 4f60 003f efb5 47bc 1594 cd3b 102d 533e
00000250: 1c28 1c3f e25e 87bd 153d 363f a9fb 3a3e
00000260: d42a 263f 8812 a53e 0923 c4be 0219 9d3d
00000270: 362a 08bf 5fdf 40be a5f0 2e3e bb01 b5bd
00000280: 8a7c c73e 17b1 c6be 9a68 ed3e 48b2 ebbc
00000290: f24c 743e 55a9 87be 6c82 72be bd84 cfbd
000002a0: 7f01 80be 08a3 a6bd a845 fa3d 58cb b4bc
000002b0: b69a 6d3f 33b8 b5be 109c ab3e 8128 dabe
000002c0: ad15 6b3c b570 8aba a7b0 ca3d 941e 3d3d
000002d0: 2bbb 5b3e f429 be3d 0421 d83e 5820 c1be
000002e0: a772 0ebe b661 d23e 63ab a8bd 9d20 29be
000002f0: 39f0 ce3c 25fc 1a3f 7725 c53d 1384 9b3d
00000300: 42d1 edbd cd54 a63e b552 d3bd 22fc 963e
00000310: 96f9 573d 23d1 853e fced fbbd e63b 57be
00000320: 4613 07bd 31a3 07be 9e82 ef3d 2e2f 903d
00000330: dab7 833e 05d2 af3e 213d 11bf 89ca 3e3e
00000340: d195 553e af1f 80bd bbe7 bebd 9926 033f
00000350: 0326 b73e f916 303e 3109 0abf c05b 2dbf
00000360: 2c1a 1a3e 2b85 383f 9ba2 ccbe 2143 9a3f
00000370: 8bed 0e3e 9aab efbe dda7 303f 3426 4bbe
00000380: b582 e33e 0259 883e 9ee4 b93e 2500 113f
00000390: 14aa 6ebd 6a68 f93d f803 433f 64e7 933e
000003a0: 01eb 003f 7ab7 ccbe d403 6abc 43f9 6d3d
000003b0: 2c6b 9fbb b5f4 2a3d 9c33 20be 7ccc 2dbe
000003c0: 9b19 643d a086 b83e 0c56 ad3e 8e76 6d3f
000003d0: 370e fd3e d9a8 2cbe 3614 dfbe 1c6f f83d
000003e0: c918 9c3e 1285 dd3e e5e4 fd3e b0c6 4c3d
000003f0: 522e 983c 16eb 19bf f339 913e 72b6 31bf

encoder.6.convs.4.bias f4 [16]
-8.2198575e-08 2.4756124e-08 -7.009448e-08 1.38217136e-08 -1.1148259e-07 -3.0559656e-07 6.0569064e-08 -1.08495776e-07
-1.0704533e-07 2.0528157e-07 -3.5282735e-08 -7.318489e-08 5.7983538e-08 2.4603935e-08 2.0290793e-08 -4.264974e-08
00000000: 2585 b0b3 4ba7 d432 d986 96b3 8a74 6d32
00000010: 3468 efb3 df10 a4b4 3212 8233 2ffe e8b3
00000020: cbe0 e5b3 5e6b 5c34 c789 17b3 d229 9db3
00000030: 9309 7933 a058 d332 ed4b ae32 e32d 37b3

encoder.7.weight f4 [16]
0.47699267 0.3386206 0.5836258 0.73697984 0.3519091 0.72403395 0.86083573 0.7626564
0.5554531 0.5547577 0.4287897 0.51086193 0.4752492 0.5017744 0.6806683 0.49105978
00000000: 6238 f43e ae5f ad3e 8068 153f b6aa 3c3f
00000010: 6e2d b43e 4a5a 393f bb5f 5c3f 733d 433f
00000020: 2d32 0e3f 9a04 0e3f 538a db3e d9c7 023f
00000030: dd53 f33e 4974 003f 4740 2e3f 306c fb3e

encoder.7.bias f4 [16]
0.37054235 0.36833435 0.14835647 -0.6416446 0.42515978 0.42411903 -0.4174935 -0.12616654
0.6661204 -0.15778713 0.8773617 1.2869266 0.39511788 0.21039835 0.1288514 0.0684938
00000000: bab7 bd3e 5296 bc3e c2ea 173e d242 24bf
00000010: 8bae d93e 2126 d93e b5c1 d5be cd31 01be
00000020: de86 2a3f f392 21be c79a 603f 03ba a43f
00000030: e44c ca3e aa72 573e 9ff1 033e 7a46 8c3d

encoder.7.running_mean f4 [16]
0.51085085 0.11046936 0.046109155 1.1229138 1.1095948 0.3267187 0.044795383 -0.07271476
1.4103163 0.21717301 1.1141039 1.1191312 0.8552354 0.7475575 0.6597879 0.64609367
00000000: 1fc7 023f c33d e23d f4dc 3c3d a4bb 8f3f
00000010: 3407 8e3f ac47 a73e 5d7b 373d 7aeb 94bd
00000020: 3f85 b43f 9a62 5e3e f59a 8e3f b13f 8f3f
00000030: b5f0 5a3f ee5f 3f3f dce7 283f 6566 253f

encoder.7.running_var f4 [16]
0.1930692 0.5476919 0.4085917 0.29300696 0.42420748 0.36026487 0.83732975 0.7067651
0.3761227 0.7905901 0.6336251 0.20671262 0.20193866 0.89976317 0.74139625 0.30921754
00000000: efb3 453e 8935 0c3f ee32 d13e 0205 963e
00000010: b931 d93e a374 b83e 3e5b 563f 8fee 343f
00000020: 2893 c03e 1d64 4a3f 4135 223f 79ac 533e
00000030: 02c9 4e3e e156 663f 25cc 3d3f c351 9e3e

encoder.8.convs.1.weight f4 [16, 16, 3, 3]
-0.046575073 0.0060960976 -0.02395866 0.10577217 0.44383416 0.10530096 0.13766049 0.044071913
0.11718616 0.07102181 0.21065323 0.047042377 -0.1690172 -0.03857208 0.09249226 -0.23045594
-0.024828628 -0.07681763 0.014553379 0.18497343 -0.009289514 0.32156637 0.18858038 -0.12538996
0.09821825 0.06598324 -0.319215 -0.01491193 -0.24583036 -0.08601081 0.032038413 -0.062286254
-0.2081314 0.2325643 0.19044623 -0.04514 0.01589851 0.07148113 -0.013160149 -0.112955645
0.31636584 -0.1183594 -0.06527757 -0.069721535 0.07281593 -0.02414531 0.10455595 0.07791072
0.5186253 0.6568282 0.12608293 -0.20709594 -0.07547248 0.06362914 -0.009805131 -0.26581708
0.004426356 0.070655786 -0.21920307 -0.13562413 -0.19802885 -0.0082478 0.054860882 0.047211044
0.4478285 0.0046588695 0.32736543 -0.39743087 0.6131805 -0.056149125 0.18312795 0.02226144
0.081800826 -0.2927619 0.13948712 -0.33059162 0.2646459 -0.14175539 -0.12643172 0.052692387
-0.04573637 0.20187958 0.20259567 -0.3772025 0.17464268 -0.6005432 0.23267825 -0.14155418
0.016724315 -0.05155874 -0.12513322 0.034874525 -0.086530946 0.19702671 0.08632002 0.08742427
0.28874043 0.08206762 -0.1827895 0.13975753 0.17764464 -0.06626451 -0.001671839 -0.09315069
0.19203156 -0.05820088 -0.048209313 0.13266924 -0.08887073 -0.06724319 -0.11333329 -0.3642289
0.8711595 0.27619365 -0.14103548 -0.027532361 0.011698775 -0.12081682 -0.209896 0.030934911
0.10333497 0.19369999 -0.11390766 -0.035803773 -0.047817625 -0.109404296 -0.13991939 0.07332068
0.23049808 -0.032949656 0.7432072 -0.066573866 0.15643495 0.09002087 0.013912889 0.061365128
0.12975629 -0.06467425 0.25723308 0.14033182 -0.02084577 -0.03333391 -0.06461621 -0.09213972
0.16208534 0.15584788 0.046767335 -0.16806638 0.2087883 0.11820897 0.19356175 -0.018901285
-0.034663945 0.08945222 0.2173343 -0.026849013 -0.25792435 0.67507637 0.21383828 -0.0053700963
-0.13316096 -0.031364422 0.020984534 -0.035430692 0.19387254 0.17759523 0.09247763 0.31917858
-0.038196225 0.398966 -0.31130725 0.105597615 -0.08082262 0.048686065 -0.0146879265 -0.35930935
0.1365662 0.03245407 -0.0498641 -0.099228874 0.015383934 -0.099350244 0.03951338 -0.10505687
0.0038595838 0.1430318 -0.06627657 -0.11580148 -0.103719674 0.0036661583 -0.0021342158 0.0052977237
-0.19523928 -0.034399536 0.11961812 0.024579966 -0.007317637 -0.05559797 -0.043392878 0.14625975
0.09291002 -0.42675966 1.2666984 0.17962727 0.12147311 -0.11178875 0.010270306 0.019064754
-0.24025567 0.08017136 0.31881306 0.08607601 -0.34272772 -0.11062061 0.15889712 0.1520201
-0.06276895 0.24653542 -0.11820228 -0.3453791 0.13377476 0.11004834 -0.047376655 -0.04638762
-0.0074826004 0.019907504 -0.26869816 0.08924298 0.05945073 -0.33518252 0.09689933 0.07522783
0.054564156 0.032455917 -0.010570023 -0.29962394 0.07996798 0.074433595 -0.6169488 0.015142566
-0.05038869 -0.056746323 0.030054776 -0.055284373 0.08225437 0.027666602 0.29673997 0.08082614
-0.16776647 -0.050856143 -0.06533662 0.15896906 -0.15400428 -0.041693226 0.17813785 -0.34636548
00000000: 81c5 3ebd c6c1 c73b f444 c4bc 149f d83d
00000010: 3b3e e33e 08a8 d73d dff6 0c3e c084 343d
00000020: 4cff ef3d e273 913d 7bb5 573e 82af 403d
00000030: d812 2dbe c2fd 1dbd 956c bd3d a4fc 6bbe
00000040: 6865 cbbc 9052 9dbd 4c71 6e3c ad69 3d3e
00000050: 0c33 18bc 59a4 a43e 371b 413e 3a66 00be
00000060: a626 c93d 3922 873d 2670 a3be 2b51 74bc
00000070: f4ba 7bbe 7026 b0bd b63a 033d df1f 7fbd
00000080: 6620 55be 5625 6e3e 5604 433e b8e4 38bd
00000090: 983d 823c b364 923d aa9d 57bc 4a55 e7bd
000000a0: b4fa a13e 6a66 f2bd 3fb0 85bd 2aca 8ebd
000000b0: 8520 953d 63cc c5bc 6e21 d63d a88f 9f3d
000000c0: a1c4 043f e525 283f e21b 013e f510 54be
000000d0: 5191 9abd ff4f 823d b3a5 20bc 2d19 88be
000000e0: f70a 913b fbb3 903d c576 60be 0de1 0abe
000000f0: 13c8 4abe c821 07bc ceb5 603d 5e60 413d
00000100: c749 e53e 6ea9 983b 719c a73e 0f7c cbbe
00000110: 66f9 1c3f a0fc 65bd e585 3b3e a05d b63c
00000120: 3187 a73d e3e4 95be b6d5 0e3e 4e43 a9be
00000130: ab7f 873e 5328 11be 5177 01be f9d3 573d
00000140: 0f56 3bbd 85b9 4e3e 3d75 4f3e b020 c1be
00000150: 88d5 323e 33bd 19bf 3543 6e3e 94f3 10be
00000160: 6e01 893c 422f 53bd ec22 00be 97d8 0e3d
00000170: 2337 b1bd 5fc1 493e 8dc8 b03d 7f0b b33d
00000180: c9d5 933e 1113 a83d 2c2d 3bbe 991c 0f3e
00000190: 7ae8 353e b0b5 87bd 9c21 dbba cac5 bebd
000001a0: eca3 443e 0c64 6ebd 2177 45bd 72da 073e
000001b0: db01 b6bd ccb6 89bd 491b e8bd 367c babe
000001c0: 4f04 5f3f 4169 8d3e 9b6b 10be 8c8b e1bc
000001d0: 38ac 3f3c cf6e f7bd faee 56be 366b fd3c
000001e0: 49a1 d33d 4a59 463e 6b48 e9bd faa6 12bd
000001f0: 6adc 43bd 5c0f e0bd 0747 0fbe 2729 963d
00000200: b007 6c3e 38f6 06bd d442 3e3f e157 88bd
00000210: 7c30 203e dd5c b83d e3f2 633c 005a 7b3d
00000220: d5de 043e ef73 84bd 0eb4 833e 25b3 0f3e
00000230: c0c4 aabc 2389 08bd 8155 84bd c0b3 bcbd
00000240: b3f9 253e 9696 1f3e 1b8f 3f3d 9819 2cbe
00000250: 9acc 553e 8b17 f23d 0d35 463e ded6 9abc
00000260: c8fb 0dbd ba32 b73d e28c 5e3e 76f2 dbbc
00000270: a90e 84be ced1 2c3f 6cf8 5a3e a2f7 afbb
00000280: 595b 08be fb77 00bd c2e7 ab3c c61f 11bd
00000290: 8686 463e 86db 353e e964 bd3d 606b a33e
000002a0: a573 1cbd 4645 cc3e aa63 9fbe 9043 d83d
000002b0: 5486 a5bd 0a6b 473d a1a5 70bc 65f7 b7be
000002c0: 03d8 0b3e 8fee 043d 4c3e 4cbd 8238 cbbd
000002d0: e50c 7c3c 2478 cbbd c8d8 213d 0e28 d7bd
000002e0: 12f1 7c3b ee76 123e 03bc 87bd 5429 edbd
000002f0: fb6a d4bd ee43 703b 33de 0bbb 8798 ad3b
00000300: ceec 47be 87e6 0cbd 58fa f43d ed5b c93c
00000310: cac8 efbb b2ba 63bd bbbc 31bd 1ec5 153e
00000320: 9c47 be3d 3e80 dabe 2c23 a23f 36f0 373e
00000330: e5c6 f83d 80f1 e4bd c944 283c b02d 9c3c
00000340: 9505 76be e230 a43d 773b a33e 9e48 b03d
00000350: 027a afbe 0f8d e2bd edb5 223e 28ab 1b3e
00000360: 028d 80bd c873 7c3e 0914 f2bd 88d5 b0be
00000370: 40fc 083e 0661 e13d 060e 42bd f200 3ebd
00000380: 9a30 f5bb 1015 a33c ce92 89be 06c5 b63d
00000390: 9c82 733d 0b9d abbe 2873 c63d 0c11 9a3d
000003a0: aa7e 5f3d 7ff0 043d e42d 2dbc 4f68 99be
000003b0: 41c6 a33d a470 983d 5bf0 1dbf 8618 783c
000003c0: 5f64 4ebd d56e 68bd 6f35 f63c de71 62bd
000003d0: fb74 a83d 12a5 e23c 4dee 973e 2d88 a53d
000003e0: f9ca 2bbe 884e 50bd 35cf 85bd c9c8 223e
000003f0: 4cb3 1dbe 84c6 2abd c569 363e d156 b1be

encoder.8.convs.1.bias f4 [16]
3.0389362e-08 -2.3449491e-08 -1.4985964e-08 3.1790684e-08 -4.1836408e-08 3.246218e-08 2.697676e-08 -6.502668e-08
6.266593e-08 -3.291861e-08 -2.9878027e-08 -1.4554313e-09 -2.7055316e-09 -3.6067522e-09 3.0129286e-08 4.0783817e-08
00000000: 7585 0233 fa6d c9b2 7cba 80b2 3a8a 0833
00000010: 9eaf 33b3 8b6c 0b33 86ba e732 cca4 8bb3
00000020: f692 8633 6562 0db3 3d53 00b3 7008 c8b0
00000030: 37ec 39b1 a8da 77b1 8067 0133 482a 2f33

encoder.8.convs.2.weight f4 [16]
1.0991182 1.021462 1.3015819 1.2722276 1.2686511 1.1335696 1.2636167 1.2901771
0.9921975 1.3149351 1.6584337 1.5641491 1.1665862 1.1522813 0.97244346 1.6451496
00000000: e8af 8c3f 44bf 823f 3c9a a63f 5bd8 a23f
00000010: 2963 a23f cf18 913f 31be a13f 8624 a53f
00000020: a800 7e3f cb4f a83f 8e47 d43f 0a36 c83f
00000030: b252 953f f47d 933f 0ef2 783f 4394 d23f

encoder.8.convs.2.bias f4 [16]
0.43390542 0.28709447 -0.6579459 -0.10266974 0.64838034 0.73231775 -0.18066777 -0.9607263
1.6353151 -0.5917811 0.0743718 -0.051779937 0.34644526 -0.83835286 0.05184515 0.11966602
00000000: da28 de3e 0cfe 923e 246f 28bf 8344 d2bd
00000010: 41fc 253f 2d79 3b3f f900 39be 29f2 75bf
00000020: 0152 d13f f77e 17bf 3e50 983d 3317 54bd
00000030: 4661 b13e 4b9e 56bf 945b 543d 7513 f53d

encoder.8.convs.2.running_mean f4 [16]
2.1112516 0.8201932 -0.037742343 0.11384021 1.774653 1.9732898 2.067341 -0.26434198
2.087626 0.5497613 2.4124243 0.42765817 1.028377 0.5211841 2.2908585 0.533659
00000000: bf1e 0740 2ef8 513f b797 1abd 0e25 e93d
00000010: d427 e33f c394 fc3f 514f 0440 d557 87be
00000020: aa9b 0540 28bd 0c3f 2965 1a40 03f6 da3e
00000030: dca1 833f 526c 053f 6d9d 1240 e09d 083f

encoder.8.convs.2.running_var f4 [16]
2.2587528 1.4444412 0.4872049 0.8390377 2.6739724 2.071511 1.9412125 1.1773356
2.0050106 1.0000837 3.4330587 1.971324 1.9387577 0.6649005 1.0549636 1.2882329
00000000: 688f 1040 73e3 b83f ec72 f93e 2dcb 563f
00000010: 5d22 2b40 a393 0440 a779 f83f efb2 963f
00000020: 1852 0040 be02 803f 3cb7 5b40 5854 fc3f
00000030: 3629 f83f eb36 2a3f 0c09 873f d1e4 a43f

encoder.8.convs.4.weight f4 [16, 16, 1, 1]
0.23316759 -0.9062361 -0.03761511 -0.5242958 0.6947867 -0.12670872 -0.0005474574 0.6231182
0.098989494 -0.00065432524 -0.9953172 0.72853065 -0.022805497 -0.38234192 -0.035830297 0.42910498
0.60285306 0.16118385 0.25501955 -0.14015037 -0.33220494 -0.35021368 -0.7808713 0.4788298
1.5524919 0.239972 -0.034312624 -0.42582694 -0.2587918 0.00088760565 -0.33169568 0.27747753
-0.75838816 -0.022010053 -0.45494455 0.79039365 0.80704486 0.113693796 0.46085095 -0.3478956
-0.21630973 -0.6775573 -0.9135301 -0.2517065 0.34919408 -0.0355147 0.43994495 -0.7481181
0.30476567 0.28281015 -1.1049846 -0.35016686 0.40820485 -1.1464618 -0.15831028 -0.06653062
-0.10241957 0.45856297 -0.10558174 0.7663432 0.30321938 0.4153364 -0.009014373 -0.044083606
-0.44075733 0.4071662 -0.75182474 -0.020273339 -0.5822054 -0.038555052 -0.21108034 -0.3328428
0.3741335 -0.76117915 0.4659507 1.3132377 0.29705235 -0.3667124 -0.20475136 -0.39560154
-0.21594885 -0.73089314 0.6651935 -0.08518892 0.13065791 0.10295041 0.091182716 0.5028579
0.3506642 -0.29619744 -0.14470573 0.0019353877 0.0318099 -0.31270635 -0.3471701 0.3201543
0.7492907 -0.8740056 -0.2182601 -0.4027311 0.50612223 -0.7041467 0.39640698 -0.14464264
-0.4107998 0.009706552 -0.73253214 -0.04145433 0.48763764 -0.1743137 -0.4539607 0.87406874
0.32816133 0.34215412 -0.081584916 0.487725 0.8005454 0.24488686 0.27735576 -0.9095848
0.12547942 -0.31255296 -0.7461856 0.10312044 -0.45045373 0.9356308 0.68587625 -1.4951874
-0.62244785 -0.06066847 0.28714472 -0.023031164 0.054656338 -0.4270903 -0.30641812 -0.11639908
-0.4155131 0.33396536 0.10865782 0.022198558 0.66748875 0.08090639 -0.06979052 -0.13945097
-0.021885712 0.026466409 0.30887476 0.33913428 0.20791227 -0.7674679 -0.23532313 -0.35201368
-0.09335191 0.56238574 -0.1833588 0.31775787 0.88704526 0.42348957 -0.64017826 -0.49007714
0.18649639 0.08671602 -0.0018232979 0.09380203 0.10686742 0.036889415 0.27555797 -0.5268364
0.16821225 0.3566227 -0.8413704 -0.06509011 -0.19808653 -0.3925831 0.2177735 0.072427675
-0.31209135 0.55901897 -0.3745036 -0.017707212 -0.20536913 -0.0017398183 0.2290265 0.27652076
0.31555322 -0.3421074 -0.20694011 0.07300103 0.085602604 0.3612014 0.14567046 -0.3954379
0.15427075 -0.3358904 0.26397657 -0.21236408 -1.2672958 1.007947 0.43340763 0.8884954
-0.13664752 0.17414086 -0.72641164 -0.10648631 0.8085683 0.13977328 -0.029327672 -0.00021386807
0.42404032 -0.14960352 0.14384891 -0.5219192 -0.4322281 -0.46377188 -0.060973022 0.18848893
1.1811194 0.3185464 -0.41663867 -0.87833196 0.31251118 0.10525457 0.14219306 0.79201293
-0.6174891 -0.31583843 0.16062368 0.09837628 0.6144391 0.18286915 -0.5704045 0.3562084
0.030079124 -0.015240043 -0.5744691 0.27513233 -0.2255704 0.18479303 0.6664728 -0.3752553
-0.13153622 0.058451995 0.17053519 -0.56663173 0.21321128 0.62211066 -0.8752246 0.08805435
0.24738002 0.59715843 -0.7207623 0.3451044 0.10440841 -0.40650487 -0.4164376 0.3106251
00000000: 7cc3 6e3e 17ff 67bf 4d12 1abd 4038 06bf
00000010: 8bdd 313f eebf 01be 3f83 0fba ad84 1f3f
00000020: 01bb ca3d 0687 2bba 1ccd 7ebf fc80 3a3f
00000030: 98d2 babc 52c2 c3be cac2 12bd a6b3 db3e
00000040: 9454 1a3f 610d 253e ec91 823e 9483 0fbe
00000050: c416 aabe 354f b3be 2ee7 47bf 2e29 f53e
00000060: 0eb8 c63f 38bb 753e 658b 0cbd fd05 dabe
00000070: 5c80 84be 35ae 683a 04d4 a9be 8911 8e3e
00000080: ba25 42bf 6d4e b4bc 7eee e8be 3d57 4a3f
00000090: 7e9a 4e3f 4bd8 e83d a8f4 eb3e 5f1f b2be
000000a0: 4c80 5dbe 6574 2dbf 1cdd 69bf addf 80be
000000b0: 91c9 b23e dd77 11bd 7740 e13e ab84 3fbf
000000c0: 3f0a 9c3e 7ecc 903e 2370 8dbf 1249 b3be
000000d0: 3a00 d13e 43bf 92bf 171c 22be 3541 88bd
000000e0: 5ac1 d1bd c4c8 ea3e 3d3b d8bd 112f 443f
000000f0: 923f 9b3e f9a6 d43e 05b1 13bc 0391 34bd
00000100: f2aa e1be 1778 d03e 9677 40bf 4614 a6bc
00000110: 6a0b 15bf e7eb 1dbd 7225 58be 5f6a aabe
00000120: 6d8e bf3e a3dc 42bf 1791 ee3e 2c18 a83f
00000130: 3f17 983e bac1 bbbe 57aa 51be 498c cabe
00000140: b221 5dbe d01b 3bbf 1f4a 2a3f 8777 aebd
00000150: 30cb 053e aad7 d23d 01be ba3d 4cbb 003f
00000160: 428a b33e 31a7 97be bd2d 14be d6ac fd3a
00000170: 194b 023d 0c1b a0be 48c0 b1be 44eb a33e
00000180: 84d1 3f3f d5be 5fbf 937f 5fbe c532 cebe
00000190: 3a91 013f f542 34bf dbf5 ca3e 331d 14be
000001a0: 5a54 d2be 3b08 1f3c 3a87 3bbf 04cc 29bd
000001b0: a4ab f93e 4a7f 32be 896d e8be f8c2 5f3f
000001c0: c304 a83e d32e af3e fe15 a7bd 17b7 f93e
000001d0: 8bf0 4c3f 9fc3 7a3e 9301 8e3e 8dda 68bf
000001e0: ad7d 003e f106 a0be 0506 3fbf cf30 d33d
000001f0: dfa1 e6be 8085 6f3f 9695 2f3f 4d62 bfbf
00000200: be58 1fbf 807f 78bd a204 933e daab bcbc
00000210: 53df 5f3d 94ab dabe d6e2 9cbe a462 eebd
00000220: 22be d4be 82fd aa3e fe87 de3d c0d9 b53c
00000230: 8be0 2a3f 40b2 a53d 55ee 8ebd 3ccc 0ebe
00000240: aa49 b3bc 15d0 d83c d524 9e3e 02a3 ad3e
00000250: f4e6 543e c778 44bf 8cf8 70be 233b b4be
00000260: 492f bfbd 83f8 0f3f 69c2 3bbe 29b1 a23e
00000270: 6615 633f a0d3 d83e b9e2 23bf 64eb fabe
00000280: e9f8 3e3e 2b98 b13d bafb eeba 471b c03d
00000290: 4edd da3d 5b19 173d ef15 8d3e c0de 06bf
000002a0: d53f 2c3e 4097 b63e 0d64 57bf f74d 85bd
000002b0: 32d7 4abe a700 c9be 0400 5f3e f654 943d
000002c0: 70ca 9fbe de1b 0f3f f0be bfbe b70e 91bc
000002d0: 494c 52be 9d0a e4ba ec85 6a3e 2194 8d3e
000002e0: 3190 a13e b328 afbe 1ce8 53be 9081 953d
000002f0: 6b50 af3d 64ef b83e a32a 153e d676 cabe
00000300: 27f9 1d3e d4f9 abbe f027 873e f875 59be
00000310: c036 a2bf 6804 813f 9be7 dd3e 6f74 633f
00000320: 54ed 0bbe fb51 323e 1df6 39bf 7f15 dabd
00000330: 55fe 4e3f ba20 0f3e 9640 f0bc c641 60b9
00000340: d01b d93e aa31 19be 214d 133e 7f9c 05bf
00000350: 004d ddbe 8273 edbe d9be 79bd 3e03 413e
00000360: ec2e 973f 8418 a33e aa51 d5be 5dda 60bf
00000370: 7701 a03e b58f d73d 0f9b 113e 5cc1 4a3f
00000380: c413 1ebf 93b5 a1be 897a 243e 8179 c93d
00000390: e14b 1d3f 0d42 3b3e 0806 12bf f360 b63e
000003a0: 7f68 f63c 60b1 79bc 6810 13bf 25de 8c3e
000003b0: edfb 66be 623a 3d3e f69d 2a3f 7621 c0be
000003c0: 6eb1 06be 5c6b 6f3d c7a0 2e3e c70e 11bf
000003d0: 0f54 5a3e a542 1f3f b80e 60bf d755 b43d
000003e0: 3051 7d3e 60df 183f e183 38bf 86b1 b03e
000003f0: 14d4 d53d 6821 d0be 4f37 d5be 410a 9f3e

encoder.8.convs.4.bias f4 [16]
-4.4135234e-08 4.160704e-09 -7.490564e-09 1.2209584e-08 3.536526e-08 -1.07985684e-07 7.59373e-09 -3.8325663e-08
5.2137988e-08 3.4583232e-09 1.6882925e-08 3.018552e-08 8.545253e-08 -5.2639805e-08 8.553878e-09 1.3378397e-07
00000000: 348f 3db3 f0f5 8e31 d9af 00b2 51c2 5132
00000010: 84e4 1733 c2e5 e7b3 9475 0232 839b 24b3
00000020: 53ee 5f33 77a7 6d31 f205 9132 55a5 0133
00000030: 0682 b733 1416 62b3 5af4 1232 42a6 0f34

encoder.9.weight f4 [16]
1.4034011 1.2991824 1.6282781 1.1807798 1.6375488 1.542968 1.2128137 1.5410472
1.1962403 1.0769781 1.0989261 -1.2398108 -1.3144695 1.4072095 1.1062071 1.5472329
00000000: a6a2 b33f 9c4b a63f 6b6b d03f cb23 973f
00000010: 339b d13f fa7f c53f 7b3d 9b3f 0941 c53f
00000020: 671e 993f 6bda 893f 9ca9 8c3f 1fb2 9ebf
00000030: 8940 a8bf 711f b43f 3298 8d3f ba0b c63f

encoder.9.bias f4 [16]
0.032699358 -0.026302489 0.01343602 -0.01820398 -0.1251344 0.01261822 0.05635073 -0.00019627568
-0.05478796 -0.001613774 0.09249296 0.029895725 -0.005595301 -0.004148646 -0.012356617 0.020013815
00000000: c3ef 053d 5178 d7bc c122 5c3c 8320 95bc
00000010: 3b23 00be a7bc 4e3c 06d0 663d 5acf 4db9
00000020: 5769 60bd 4585 d3ba f36c bd3d e1e7 f43c
00000030: c958 b7bb 5df1 87bb 6873 4abc 03f4 a33c

encoder.9.running_mean f4 [16]
0.530633 2.329166 -0.5758136 -0.7936807 0.7537782 0.75688 -1.1220989 0.1245913
-0.31858107 -0.38456717 1.0145371 1.485732 0.21707805 1.5609545 -0.09389903 0.586271
00000000: 90d7 073f 0e11 1540 8568 13bf a92e 4bbf
00000010: 9cf7 403f e3c2 413f f0a0 8fbf b929 ff3d
00000020: 0f1d a3be fde5 c4be 5adc 813f 772c be3f
00000030: b549 5e3e 5bcd c73f 224e c0bd db15 163f

encoder.9.running_var f4 [16]
2.3464203 4.2591395 3.9189556 2.250703 3.6828208 1.5644293 5.470295 4.4634886
0.77344126 2.716436 2.4906054 0.90259135 1.7668533 6.554858 0.9779532 1.7221017
00000000: c02b 1640 df4a 8840 2bd0 7a40 850b 1040
00000010: 56b3 6b40 383f c83f a80c af40 e6d4 8e40
00000020: 3f00 463f 16da 2d40 1466 1f40 3a10 673f
00000030: 4028 e23f 66c1 d140 245b 7a3f d46d dc3f
